output/digit_weights.npy (npy, 31440 bytes, 1 tensors)

array f4 [784, 10]
000000 70 7d f0 bf 65 7a e7 bf 69 9c e6 bf b5 ad d5 bf
       -1.878828 -1.8084227 -1.8016483 -1.6693636
000010 ec b5 d3 c0 1d 2b d7 c0 2c 58 ed bf 45 93 eb bf
       -6.6159573 -6.724013 -1.8542533 -1.8404318
000020 9e 2f 19 40 2d 6b 35 40 9e 3a 0f c0 80 5c 0b c0
       2.3935313 2.8346665 -2.2379527 -2.1775208
000030 4e d4 eb bf 86 9b db bf 81 c4 93 c0 48 45 d9 c0
       -1.8424165 -1.7156837 -4.6177373 -6.789707
000040 20 2d 80 c0 16 95 e5 bf 70 87 28 40 08 f4 d0 40
       -4.0055084 -1.7936122 2.6332664 6.529789
000050 aa 08 1e c0 84 7a 3b c0 1d 26 fe bf 60 2c e0 bf
       -2.4692788 -2.9293528 -1.9855381 -1.7513542
000060 a9 15 3e c0 5e 7f d0 c0 b4 e9 87 c0 77 3e d5 bf
       -2.970072 -6.5155478 -4.247278 -1.6659688
000070 b3 06 27 40 e3 82 06 41 c9 6f 15 c0 cb 0f 12 c0
       2.609784 8.406955 -2.3349478 -2.282214
000080 78 55 0d c0 5e 34 e8 bf 95 bc 27 bf 6f 36 dc c0
       -2.2083416 -1.8140981 -0.6552213 -6.8816447
000090 c1 54 85 c0 5d 6d 9f bf 5a 73 1b 40 ba 8b e9 40
       -4.166596 -1.245525 2.4289155 7.2983065
0000a0 29 c6 03 c0 0c 76 c0 bf 83 a2 03 c0 c7 66 ef bf
       -2.0589697 -1.5036025 -2.056794 -1.870324
0000b0 c9 46 48 40 45 90 07 c1 5c e5 68 c0 15 6c d5 be
       3.1293204 -8.472722 -3.638999 -0.41684023
0000c0 b0 77 05 40 ba d1 ae 40 fb 1f dc bf 31 97 40 bd
       2.0854301 5.4631014 -1.719726 -0.047019187
0000d0 49 82 ad 40 e2 d6 33 c0 94 68 ca 40 5b 55 4b c1
       5.422154 -2.8099904 6.325266 -12.708339
0000e0 a6 3e 19 c0 24 dc dd 3e b6 40 c6 3f ff 10 ce 3f
       -2.3944488 0.43332016 1.5488498 1.6098937
0000f0 57 4a b1 bf 34 2c 1c 40 03 e0 96 40 1d 37 0a c1
       -1.3850812 2.440198 4.714845 -8.638455
000100 15 4f d0 40 de d7 3c c1 ad 78 5d 40 d9 2d 54 40
       6.5096536 -11.802702 3.4604905 3.3152983
000110 d1 c6 eb bf d8 2f f9 c0 97 ce a6 be bc 5a 1b 40
       -1.8420049 -7.7870903 -0.3257949 2.427413
000120 d6 05 86 40 03 62 11 c1 69 3d c5 40 a7 40 03 c1
       4.1882124 -9.086429 6.1637464 -8.203284
000130 5e f7 cf 40 a0 2b 6b 40 6e 9c e6 bf f7 96 27 c1
       6.498946 3.6745377 -1.8016489 -10.474357
000140 bd b4 a8 3e 41 d1 ad 3f ae 8d 23 40 a1 32 09 c1
       0.32950392 1.3579484 2.5555224 -8.574861
000150 f2 da fe 40 52 7b b8 c0 97 b9 ba 40 18 ed 3a 40
       7.9642267 -5.7650537 5.835155 2.920721
000160 6e 9c e6 bf fe c0 19 c1 23 80 9d 3f c4 76 fe 3d
       -1.8016489 -9.609617 1.2304729 0.124249965
000170 97 bd c6 c0 60 05 da c0 6f d9 0d 41 57 b9 22 c0
       -6.2106433 -6.813156 8.865584 -2.5425622
000180 eb 04 a9 40 de a9 26 40 71 9c e6 bf 35 8c 02 c1
       5.2818503 2.6041179 -1.8016492 -8.15923
000190 6f d1 d6 3f 9e 25 01 c0 42 69 d6 c0 dd ce 92 c0
       1.6782664 -2.017921 -6.700349 -4.587752
0001a0 f0 eb f6 40 e3 a7 4b bf 81 f8 61 40 1e 1f 35 40
       7.716301 -0.7955305 3.5307925 2.8300242
0001b0 00 ce e8 bf 3a 95 f2 c0 c4 b3 c5 3f 88 68 15 c0
       -1.8187866 -7.580716 1.5445485 -2.334505
0001c0 33 b9 ba c0 fa e8 e7 bf ce 27 e1 40 9c 77 5e 40
       -5.8351073 -1.8117974 7.036109 3.4760504
0001d0 37 97 8c c0 74 e9 37 40 6f 9c e6 bf a6 65 e7 c0
       -4.393459 2.8736238 -1.801649 -7.2311583
0001e0 e1 f3 a7 3f b0 e2 07 c0 34 ca 95 c0 00 dd 3f 40
       1.3121301 -2.123211 -4.680933 2.9978638
0001f0 ca 9a bd 40 5a ea 31 41 37 81 a7 c0 73 91 3c 40
       5.925145 11.119715 -5.2345233 2.9463775
000200 11 28 2c c0 3e df b7 c0 bc 43 99 3f 56 57 02 c0
       -2.6899455 -5.7460012 1.1973796 -2.0365806
000210 c9 d0 5e c0 8c 51 5f 40 7f b5 9e 40 ca 85 de 40
       -3.4814932 3.4893522 4.9596553 6.9538317
000220 44 9c b6 c0 66 5f 2f 40 85 50 24 c0 11 7d 8a c0
       -5.7065754 2.7401977 -2.5674145 -4.327767
000230 58 08 65 3f a5 d8 f6 bf c7 22 2c c0 af c1 59 40
       0.89465857 -1.9284865 -2.6896226 3.4024465
000240 3b 16 8a 40 94 c8 b9 40 6f b4 bf c0 63 00 3c 40
       4.3152137 5.8057346 -5.9907756 2.9375236
000250 34 b0 44 c0 b9 3f 4b c0 43 17 2f 3f c2 8f eb bf
       -3.0732546 -3.1757643 0.6839487 -1.8403246
000260 68 89 08 c0 ee ab 52 40 ca 80 71 40 c5 72 b9 40
       -2.1333866 3.2917438 3.7734857 5.79526
000270 ce e4 ce c0 0a 6c 78 3e 86 d4 69 c0 83 47 16 c0
       -6.4654303 0.24259964 -3.6535964 -2.3481147
000280 99 7d 66 3f 6d 9c e6 bf 27 dd ec bf 53 b1 2b 40
       0.90035397 -1.8016487 -1.850499 2.682698
000290 ad da 57 40 2a 07 c8 40 aa ba d5 c0 ae 35 1f bf
       3.372722 6.2508745 -6.679036 -0.62191284
0002a0 3f 75 89 c0 cc 8e f3 bf f7 37 96 3f 6f 9c e6 bf
       -4.2955623 -1.9027953 1.1735829 -1.801649
0002b0 6f 9c e6 bf b8 f4 07 40 18 94 4b 40 d6 c0 e6 40
       -1.801649 2.1243114 3.180914 7.2110395
0002c0 d5 c4 e0 c0 21 13 8a be 98 f0 a6 c0 83 ac e9 bf
       -7.0240273 -0.2696772 -5.2168694 -1.8255771
0002d0 8e 70 91 3f 6d 9c e6 bf 88 e2 e5 bf 2a 09 d2 3f
       1.1362474 -1.8016487 -1.7959757 1.6409047
0002e0 c6 17 3b 40 96 bf f9 40 c1 d2 ee c0 96 64 01 3f
       2.923326 7.804637 -7.463227 0.50544107
0002f0 61 05 b7 c0 6e 9c e6 bf ba aa 8e 3f 6e 9c e6 bf
       -5.7194066 -1.8016489 1.1145852 -1.8016489
000300 99 4b e5 bf 50 75 c0 3e d5 3e 4c 40 8f 41 ed 40
       -1.7913696 0.37589502 3.191335 7.4142528
000310 cc fb ef c0 b7 fe c8 3f 27 7e b8 c0 6e 9c e6 bf
       -7.499487 1.5702733 -5.7653995 -1.8016489
000320 99 3f 07 3f 68 9c e6 bf 45 dd df bf 61 28 ea bf
       0.5283142 -1.8016481 -1.7489401 -1.8293573
000330 5b c3 89 40 0b f8 c7 40 56 ab df c0 71 ea 28 40
       4.305097 6.2490287 -6.989665 2.6393092
000340 8a 8a d0 c0 68 9c e6 bf aa cf da be 65 9c e6 bf
       -6.5169115 -1.8016481 -0.4273656 -1.8016478
000350 6e 0c e1 bf 44 5e 61 bf a8 c8 92 40 55 2f 26 bf
       -1.7581918 -0.8803446 4.586994 -0.6491597
000360 29 af d0 c0 e8 47 14 40 c8 b2 b8 c0 63 9c e6 bf
       -6.521382 2.3168888 -5.771824 -1.8016475
000370 1c d1 52 bf 5f 9c e6 bf 5f 9c e6 bf e5 a6 8c bf
       -0.82350326 -1.8016471 -1.8016471 -1.0988432
000380 4b f0 ae 40 44 2b 83 c0 36 b9 cb c0 d8 e6 92 3f
       5.4668326 -4.0990314 -6.3663588 1.1476698
000390 c7 28 8c c0 5f 9c e6 bf cd da ea be 5b 9c e6 bf
       -4.3799777 -1.8016471 -0.45870057 -1.8016466
0003a0 5b 9c e6 bf f0 c5 46 c0 a5 b0 d1 40 42 25 c5 c0
       -1.8016466 -3.1058311 6.552813 -6.160798
0003b0 3d 5b ca c0 bd 6d 65 bc 94 68 3a c0 5b 9c e6 bf
       -6.3236375 -0.014003214 -2.912633 -1.8016466
0003c0 5d 7c c7 bf 4c 9c e6 bf 4c 9c e6 bf 05 41 04 c0
       -1.5584828 -1.8016448 -1.8016448 -2.0664685
0003d0 8d be e9 40 8d 79 dd c0 2b 4d ca c0 00 e7 d8 bf
       7.3045106 -6.9210877 -6.32192 -1.6945496
0003e0 e0 a4 05 c0 4c 9c e6 bf 01 21 5e c0 35 9c e6 bf
       -2.0881882 -1.8016448 -3.4707644 -1.8016421
0003f0 35 9c e6 bf d8 30 4a bf f3 45 f0 40 43 19 b6 c0
       -1.8016421 -0.7898078 7.5085387 -5.6905837
