output/digit_weights.npy (npy, 31440 bytes, 1 tensors)

array f4 [784, 10]
00000000: 0dd5 3fbe 3ee9 74c0 7795 1640 5f9c e6bf
00000010: c4c4 43bf 04b3 3fc0 5b6a 88be ea8f 53c0
00000020: 963b 0540 568a 4140 53bd 373e 99ff eebf
00000030: 61f0 9f3f 699c e6bf 1855 753f 55e5 5bc0
00000040: 795a 36bf c19c a2c0 362e bd3f e5da 1640
00000050: b911 00bf eaf6 0340 384e f4be 2946 f8bf
00000060: 9bfe 13c1 9586 3bc0 5c31 adbf c5fb 6dc0
00000070: 8f5c 3640 7e93 cb3f 4741 cc3d bd94 d73f
00000080: 3a1c 33bf 6e10 c4bf 4bf5 f8c0 7f15 4fc0
00000090: 00ac ebbf 5f5f 89c0 447d c93f 4102 0f40
000000a0: 5450 a03f e5c2 923f 3aa2 743e a4e0 f1bf
000000b0: 7f7c e5c0 7797 8cc0 99ab 8ec0 a6e5 8dc0
000000c0: 003e 7240 8b9d 3340 1747 8f40 8c4d c73f
000000d0: cb10 5640 19ef 37c0 9fad 9ac0 9b22 b3c0
000000e0: ac32 b9c0 0dfc 4dc0 f204 5740 098c b73f
000000f0: 8b07 1c41 6a2e c83f c4bd b040 c120 7ac0
00000100: 8cbe 7ac0 1627 eec0 25a9 2dc0 7b33 bebf
00000110: 8831 f03f cc50 1cbf e4dd b540 78d0 803f
00000120: 3068 5240 3e7d aac0 a3e6 733d 3919 08c1
00000130: 9341 2540 dc88 473f 6131 5ebf ddf6 e3bf
00000140: 86d9 4040 639e 1540 9204 833f 3b42 adc0
00000150: bacd 8840 3b4d f1c0 bead 2d40 4a5b 1440
00000160: e091 d2c0 1f50 41c0 2cc4 8f3f 8d7a 0b3f
00000170: ed26 54c0 f220 80c0 bee3 bd40 eff8 55c0
00000180: c028 ec3f 9d73 1340 d986 b6c0 53cd 9fc0
00000190: a34d 9ebf 01a5 93c0 565f ddc0 44a8 22bf
000001a0: a3b0 b840 2370 9140 1633 663f d708 1240
000001b0: a770 93c0 35dc 02c1 0130 33c0 da79 92c0
000001c0: fbac dbc0 9357 e63f c5a9 c440 17f0 0741
000001d0: 163b 09c0 7e36 f53f 755e b9c0 7365 17c1
000001e0: b55f 3ac0 afd0 92c0 dab5 8cc0 1800 f73f
000001f0: 2087 ea40 0d56 f640 7a1c 5bc0 c614 d93f
00000200: 96f9 09c1 b19c 08c1 c2d4 a2bf cc9a 8fc0
00000210: f5e4 36c0 a5c7 e93f 440d ee40 63bc a640
00000220: 26f9 6cc0 2c7e 303f caa0 14c1 e469 eac0
00000230: 2d6d 313e 66a6 90c0 6497 33c0 01ee 3f40
00000240: 7ff4 c740 5e3a 7d40 7ff8 88c0 cfae d83e
00000250: 0a6a eec0 aade bbc0 5905 863f fb3c 5fc0
00000260: df10 0bc0 e64f 5f40 06ed 8f40 2d7f 7240
00000270: 57c9 8ac0 57f2 3abe d3dd 9bc0 8947 88c0
00000280: e0d0 943f b9d8 6ac0 a52a 593d bc7f 4540
00000290: 249f 5b40 18f8 8440 58f7 73c0 6466 c5bf
000002a0: 0168 83c0 0ac2 5fc0 be6d ab3f a9fc a9c0
000002b0: d160 0340 d2cb 0040 b030 0840 4ad8 9a40
000002c0: 3c3e 36c0 9bc7 b5bf b63e 77c0 6ddc 60c0
000002d0: a490 8b40 ab73 d5c0 3dc3 5b40 082f c53f
000002e0: c217 7c3e b8d5 7240 3517 1fc0 59c5 6bbe
000002f0: 8238 6cc0 a947 72c0 9291 8d40 72a1 bfc0
00000300: e28f 9140 2388 f13f 8af6 bebf a4a7 1a40
00000310: 2c2e 34c0 962f 973f 3dc3 54c0 ecf7 7ec0
00000320: 5cfa a240 d8b4 95c0 a794 a740 8705 0640
00000330: 97b8 2cc0 c569 d2be 31e8 39c0 4ad9 0540
00000340: d998 57c0 15c9 78c0 6f39 aa40 979b a9c0
00000350: 2397 ab40 6a8b 2440 0bb6 19c0 f05d 18c0
00000360: adf3 65c0 7b88 1240 3496 7dc0 22be c4bf
00000370: 7b73 8240 6cb0 b9c0 5c52 9240 e26f 4940
00000380: 8a6c fb3f 512b 0ec0 18f7 9dc0 916c ddba
00000390: 416d bfc0 4ea9 ebbe b9c1 a440 c830 bcc0
000003a0: 6b7e 5640 6fba db3f 639f 8840 bb0f 6cc0
000003b0: 94c2 4bc0 854d 25c0 c7e2 b8c0 85fa 91bf
000003c0: cb89 9440 b614 9fc0 1d38 103f 9e1d 063f
000003d0: 42be dd40 8718 c7c0 64ae a4bf 77cf 65c0
000003e0: bf28 7ec0 7762 b6bf 8584 9240 ee38 b6c0
000003f0: b8f3 24c0 06f8 16bd ac7a 0d41 b414 e0c0
-0.18733616 -3.826736 2.3528726 -1.8016471 -0.76472116 -2.9953012 -0.26643643 -3.3056588
2.0817618 3.0240684 0.17943315 -1.8671752 1.2495233 -1.8016483 0.9583297 -3.4358723
-0.712318 -5.081635 1.4779727 2.3571103 -0.5002704 2.0619454 -0.47715926 -1.9396411
-9.24966 -2.9300892 -1.3530688 -3.7184918 2.8493993 1.5904386 0.09973388 1.6842266
-0.69964945 -1.5317514 -7.779943 -3.235687 -1.8411865 -4.292892 1.5741353 2.2345126
1.2524514 1.1465727 0.2389001 -1.889668 -7.1714473 -4.3934894 -4.458447 -4.4342833
3.7850342 2.8064907 4.477428 1.557054 3.344775 -2.8739684 -4.833694 -5.5979743
-5.7874355 -3.218509 3.3596768 1.433961 9.751842 1.5639164 5.5231647 -3.9082491
-3.91788 -7.442271 -2.7134488 -1.485946 1.8765116 -0.61060786 5.6833363 1.006362
3.287609 -5.3277884 0.059546124 -8.506158 2.5821273 0.77943206 -0.86794096 -1.7809712
3.0132766 2.3377922 1.023577 -5.414335 4.275113 -7.5406775 2.7137294 2.3180718
-6.580307 -3.0205152 1.1231742 0.5448387 -3.3148758 -4.0040216 5.9340506 -3.3433187
1.8449936 2.3039315 -5.703961 -4.993814 -1.2367443 -4.613892 -6.9178877 -0.63538
5.771562 4.5449386 0.899217 2.2817895 -4.6075015 -8.1787615 -2.799805 -4.5773745
-6.864866 1.7995476 6.145724 8.496116 -2.1442313 1.9157255 -5.7927804 -9.462268
-2.9120915 -4.587974 -4.3971987 1.9296904 7.3289948 7.6980042 -3.423613 1.6959465
-8.623434 -8.538255 -1.2721179 -4.487646 -2.8577244 1.8264052 7.4391193 5.2104964
-3.7027068 0.68942523 -9.289255 -7.325426 0.17326804 -4.5203123 -2.8061152 2.9989016
6.2485957 3.9566875 -4.280334 0.42320868 -7.450444 -5.8709307 1.0470382 -3.488097
-2.1729047 3.4892516 4.4976835 3.7890122 -4.3370776 -0.18256508 -4.870828 -4.2587323
1.1626244 -3.6694777 0.053019185 3.0859213 3.4315882 4.155285 -3.8119717 -1.5421872
-4.106446 -3.4962182 1.3392866 -5.3120923 2.0527842 2.0124402 2.1279716 4.8389025
-2.8475485 -1.420154 -3.8632026 -3.5134537 4.3614063 -6.6703696 3.4337914 1.5404978
0.24618438 3.7942944 -2.4857914 -0.23024501 -3.690949 -3.7856238 4.42402 -5.9884577
4.548814 1.8869671 -1.4918988 2.416482 -2.815318 1.1811397 -3.3244164 -3.983882
5.0930614 -4.6783257 5.236896 2.0940874 -2.6987665 -0.4109632 -2.9047968 2.0913873
-3.368704 -3.887273 5.319511 -5.300243 5.3621993 2.5710092 -2.401736 -2.3807335
-3.5929978 2.28958 -3.9622927 -1.5370524 4.0765967 -5.802786 4.5725536 3.1474538
1.9642498 -2.2213938 -4.936413 -0.0016893317 -5.9820867 -0.46027607 5.148648 -5.8809547
3.351466 1.716627 4.2694564 -3.68846 -3.183751 -2.5828564 -5.777683 -1.1404577
4.6418204 -4.971278 0.5633562 0.5238894 6.929475 -6.221744 -1.286572 -3.5907876
-3.971237 -1.4248799 4.5786767 -5.6944494 -2.5773754 -0.036857627 8.842449 -7.002527
