output/digit_weights.npy (npy, 31440 bytes, 1 tensors)

array f4 [784, 10]
00000000: 5f9c e6bf d8be a6c0 136c 2040 5f9c e6bf
00000010: 49cc 75c0 5f9c e6bf 5f9c e6bf 8ea6 d1bf
00000020: e556 4240 19b2 c940 699c e6bf 1e5f 96c0
00000030: c940 0040 699c e6bf c570 54c0 699c e6bf
00000040: 699c e6bf c736 9ebf c319 1740 b46d b540
00000050: 7786 c4bf 230a c43f 7e2f e43f 4046 efbf
00000060: 94b1 dcbf 6f9c e6bf bdb4 74c0 d89e 25c0
00000070: a691 d5be d9ef 4940 092a 99bf 4d4f b43f
00000080: 9744 0140 b5f9 08c0 3a07 b6bf 011b efbf
00000090: 5f8a bfc0 e2e1 25c0 611e 023f 4310 3240
000000a0: cc08 47bf a222 353f 6ad5 913f 5db8 1cc0
000000b0: b51a ebbf 6254 2bc0 8aaf e9c0 5d34 7b3f
000000c0: 04e9 903f 52a0 8040 b7ab 7dbb 94d2 e83f
000000d0: 63dc 3f40 0dd0 23c0 4b3d 16bd 30b7 81c0
000000e0: f23c 04c1 314b c23f a022 433f 333c 7940
000000f0: 1dab 013f 0fa7 4e40 2534 2940 612a 03c0
00000100: c736 1440 9b7a 9ec0 522d 9fc0 d54d 3f40
00000110: 5a66 3fc0 183d 94be c3d0 d73e 389c 0e40
00000120: d8da 493f 85c3 c8bf 67ae 8440 dc0c 9cc0
00000130: 6fab 6d3e 103a 8a40 823c 16c0 1050 4ac0
00000140: 2c54 613f e2e2 4f3e 5e0f 1cbf 3f8e c2bf
00000150: a7a2 6840 f39c 95c0 3c7c 1740 e50b 8540
00000160: 6b2e 38c0 881e 88c0 8ec6 a43f 16cf ebbf
00000170: 874c 22c0 5c56 b7bf d378 6d40 19a6 85c0
00000180: 71dd 3540 76d7 7140 2a90 44c0 2134 90c0
00000190: 5154 463f 26f2 39c0 3d5d b4c0 8383 8ebf
000001a0: 6935 9f40 26b7 8dc0 a8b3 2c40 0f65 3740
000001b0: 8243 73c0 889a a5c0 6189 0e3e 38c7 34c0
000001c0: 601e a3c0 8db2 c8bf 9921 ac40 20f7 20c0
000001d0: b79e bdbf 6c2c 0840 ee80 bac0 694b c3c0
000001e0: 7e72 ae3e fd7d 26c0 b7b2 46c0 19dc e9bf
000001f0: ede2 c940 802d 173e 724d 23c0 7ec1 c03f
00000200: f6b7 f6c0 b399 b0c0 231b 6b3f 716f 19c0
00000210: 2474 2dc0 134d c93f 1878 c340 8a11 863f
00000220: 3125 5ac0 9f0c a33f d269 f9c0 a0ea 8ec0
00000230: d79c a33f 79c2 0ec0 bf30 36c0 3e39 2840
00000240: 6113 a540 09b1 1fbf 668c 8ec0 e08b a83f
00000250: ef4c e4c0 80ec 4ac0 9b6a b63f a557 03c0
00000260: 42b8 1fc0 2738 3440 17a2 6a40 edfa 343d
00000270: ea78 97c0 d46d a43f bdb2 b4c0 e40d 05c0
00000280: 8fe7 9d3f 992f fbbf 868a c7bf f0c9 2440
00000290: 7528 2940 52ed 8d3e 39a4 8cc0 671f 853f
000002a0: 91ba 98c0 6d9c e6bf 8b1d 453f a46f 00c0
000002b0: a9bb 2cbf ccee fb3f 9d01 e03f b47a 863f
000002c0: abdb 56c0 db97 4b3f 1b87 84c0 6d9c e6bf
000002d0: 62d0 a03e 4f43 13c0 a8cc a63d d9c4 c93f
000002e0: 760c 0e3f f0f0 fa3f 54a1 3cc0 1ca7 5b3f
000002f0: e0f0 86c0 518d ebbf d7d2 843d 44c3 24c0
00000300: e3ab 583f cc43 be3f cedd 4cbf 3908 2d3f
00000310: d20c 76c0 f7c0 713f cdcd 96c0 0737 fdbf
00000320: 9bab ca3d 9873 25c0 1676 bc3f 1115 a13f
00000330: 6d2d 13c0 fa0f 6b3f 9e9c 96c0 5dfd 603f
00000340: f9be adc0 0766 09c0 2a76 513e 1dac 27c0
00000350: ed5e ee3f 5c60 9b3f 188e 38c0 690c 8e3f
00000360: de23 abc0 7be6 8f3f 04e5 a5c0 eac1 36bf
00000370: 2122 2d3f f0fe 62c0 3d39 2440 755c 9d3f
00000380: f81e 02c0 86df 9f3f 9178 acc0 1533 283f
00000390: 7201 abc0 688f 7b3f 8667 8d3f f46c 83c0
000003a0: 3927 1b40 b933 0b3d 0a1b 3abe 9359 913f
000003b0: 3ef8 4dc0 3131 26bf 95e0 88c0 538c cc3f
000003c0: 3f8c ab3f f461 75c0 0a8f 5a3f cab5 1dbf
000003d0: 47b3 013f b59f 2d3f 6df6 65bf 39d2 8abf
000003e0: 7ac1 04c0 a598 1640 6a46 f83f 6d8b 92c0
000003f0: cfc9 17bf 4c7e 4abf 5f56 043f a891 d23c
-1.8016471 -5.2107964 2.5065963 -1.8016471 -3.8405936 -1.8016471 -1.8016471 -1.6378953
3.0365536 6.3029904 -1.8016483 -4.699111 2.0039542 -1.8016483 -3.319383 -1.8016483
-1.8016483 -1.2360467 2.3609474 5.6696415 -1.5353535 1.5315593 1.7826993 -1.8693314
-1.7241693 -1.801649 -3.8235314 -2.58782 -0.41712683 3.1552641 -1.1965953 1.4086701
2.0198114 -2.140241 -1.4220955 -1.8680116 -5.985641 -2.5919118 0.50827605 2.7822425
-0.777478 0.7075597 1.1393254 -2.4487526 -1.8367525 -2.6770253 -7.302678 0.98126775
1.1321111 4.0195704 -0.0038707086 1.8189263 2.9978263 -2.5595734 -0.036679547 -4.0536118
-8.264879 1.5179197 0.7622471 3.8942993 0.50651723 3.2289464 2.6438076 -2.0494616
2.3158433 -4.9524665 -4.9742823 2.9891255 -2.990622 -0.2895286 0.4215146 2.2282848
0.78849554 -1.5684668 4.1462893 -4.8765697 0.23209928 4.3195877 -2.347443 -3.1611366
0.8801906 0.20301393 -0.6096095 -1.519966 3.6349275 -4.675409 2.3669577 4.157702
-2.8778331 -4.253727 1.2873094 -1.8422573 -2.5359209 -1.432323 3.7104995 -4.1765256
2.8416407 3.7787757 -3.071299 -4.5063634 0.77472407 -2.9054046 -5.6363816 -1.1133884
4.97527 -4.428607 2.6984653 2.8655431 -3.8009953 -5.1751137 0.13919593 -2.8246593
-5.097458 -1.5679489 5.3791013 -2.5150833 -1.4814061 2.1277113 -5.8282385 -6.1029553
0.34071726 -2.6014397 -3.104658 -1.8270293 6.308951 0.1476345 -2.551602 1.5059049
-7.709956 -5.518762 0.9183828 -2.3974268 -2.7102137 1.5726646 6.10841 1.0474102
-3.40852 1.2738227 -7.7941675 -4.4661407 1.2782239 -2.2306197 -2.8467252 2.6284938
5.1586156 -0.6237951 -4.4546385 1.3167686 -7.1343913 -3.1706848 1.4251283 -2.0522244
-2.4956212 2.8159273 3.6661432 0.044184614 -4.73351 1.2846017 -5.6468186 -2.0789728
1.2336291 -1.9623901 -1.5589149 2.5748253 2.6430943 0.27720124 -4.3950467 1.0400208
-4.772774 -1.8016487 0.76998204 -2.006814 -0.67473847 1.968225 1.7500492 1.0506196
-3.3571575 0.7952859 -4.1414924 -1.8016487 0.31408983 -2.3009832 0.08144504 1.5763198
0.55487764 1.9604778 -2.9473467 0.85801864 -4.2169037 -1.8402501 0.06485527 -2.574418
0.8463728 1.486444 -0.8002595 0.6759067 -3.8445325 0.94435066 -4.712622 -1.9782418
0.098960124 -2.5851803 1.4723537 1.2584554 -2.2996476 0.91821253 -4.7066183 0.878866
-5.429562 -2.1468523 0.20455232 -2.61988 1.8622719 1.2138782 -2.8836727 1.1097537
-5.3481283 1.1242212 -5.184206 -0.7138964 0.676302 -3.5468102 2.5659935 1.2293841
-2.0331402 1.2490089 -5.3897176 0.65702945 -5.3439264 0.98265696 1.1047218 -4.10705
2.424269 0.033984873 -0.18174377 1.1355461 -3.2182765 -0.6491881 -4.277415 1.5980324
1.3402175 -3.8341036 0.8537451 -0.61605513 0.5066418 0.6782182 -0.8982914 -1.0845405
-2.0743089 2.3530667 1.9396489 -4.5795197 -0.5929231 -0.79098964 0.5169429 0.02570422
