output/digit_weights.npy (npy, 31440 bytes, 1 tensors)

array f4 [784, 10]
0	0xbfee9c95	-1.8641535
1	0xbf7420d0	-0.9536257
2	0xbfe69c69	-1.8016483
3	0xbfde74ad	-1.7379357
4	0xc0097e67	-2.14834
5	0xbfe69c69	-1.8016483
6	0xc00242f3	-2.0353363
7	0xbfeb9345	-1.8404318
8	0x3ffd3571	1.9781934
9	0xbf9007d1	-1.1252385
10	0xc00f51a8	-2.239359
11	0xbe7a1833	-0.24423294
12	0xbfe69c71	-1.8016492
13	0xbfe30ac2	-1.7737658
14	0xbf8c4b6d	-1.0960518
15	0xbff72099	-1.9306823
16	0xc00711c4	-2.1104593
17	0xbfeacc20	-1.8343544
18	0x3ff5ad7d	1.919357
19	0x3f29999a	0.6625
20	0xc01fddb0	-2.4979057
21	0x3f0466d0	0.5171938
22	0xbfe69c6d	-1.8016487
23	0xbfe767a5	-1.8078505
24	0xbf6b3cad	-0.9188946
25	0xbff47035	-1.9096743
26	0xc00cddf9	-2.2010481
27	0xbfe69621	-1.8014566
28	0x3ff0f1fa	1.8823845
29	0x3fde6236	1.7373722
30	0xc019535b	-2.3957126
31	0x3f97f6a3	1.1872143
32	0xbfe8489d	-1.814716
33	0xbfec4a85	-1.8460242
34	0xbf13b3fa	-0.576965
35	0xbfec9fe3	-1.8486294
36	0xc00d2d0f	-2.2058752
37	0xbfe342f7	-1.7754811
38	0x3febf235	1.8433291
39	0x3fd65141	1.6743547
40	0xc00a0c0a	-2.1569848
41	0x3fd0aa1e	1.6301916
42	0xbfedd547	-1.8580712
43	0xbff1d077	-1.8891743
44	0xbd4b4323	-0.049624573
45	0xbff13d52	-1.8846838
46	0xc003bf11	-2.0585368
47	0xbfdc68af	-1.7219447
48	0x3fe562db	1.7920793
49	0x3f69effd	0.9138182
50	0xbff25b96	-1.89342
51	0x3ffe6611	1.9874898
52	0x40098649	2.148821
53	0xc019ed80	-2.4051208
54	0x3e7481f0	0.23877692
55	0xc0040a99	-2.0631468
56	0xbefdcf11	-0.49572042
57	0xbfd66572	-1.6749709
58	0x3fb7d873	1.436293
59	0xbfab410e	-1.3379228
60	0xbfd6c010	-1.6777363
61	0x40096de1	2.1473315
62	0x3f967002	1.1752932
63	0xc0a5c59d	-5.1803727
64	0x3f1be0f9	0.60890156
65	0xc00fdc97	-2.2478387
66	0x40eefce8	7.4683723
67	0x3f9917f8	1.196044
68	0xbfedd0d4	-1.8579354
69	0xc0a985b3	-5.2975707
70	0xbf3faef4	-0.7487633
71	0x3ffbfb6f	1.9686106
72	0x3ff3aa7e	1.9036405
73	0xc09c2e6c	-4.8806667
74	0x3f257524	0.6463187
75	0xc01ddf48	-2.466753
76	0x40db9919	6.8624387
77	0x3fdd0964	1.7268491
78	0xbfe69c6e	-1.8016489
79	0xc0d46d36	-6.6383314
80	0xbe38b41e	-0.18037459
81	0x3f63d0c5	0.8899043
82	0x401f5314	2.4894457
83	0xc092abd5	-4.5834756
84	0x4019b3b3	2.401593
85	0xc0238cf3	-2.5554779
86	0x40b041f9	5.5080533
87	0x3ffcfb94	1.9764276
88	0xbfe69c6e	-1.8016489
89	0xc0c363c5	-6.105929
90	0x3f29e6bb	0.6636769
91	0xbed83fea	-0.42236263
92	0xbe9b257b	-0.30302033
93	0xc084cf65	-4.1503167
94	0x4082ea78	4.0911217
95	0xc01c57a4	-2.4428492
96	0x40b82c1e	5.7553854
97	0x3ffb43ba	1.9630044
98	0xbfe69c71	-1.8016492
99	0xc0aa23f7	-5.3168902
100	0x3fa28d88	1.2699442
101	0xc0091345	-2.141801
102	0xbfd986ec	-1.69943
103	0xc08110c6	-4.0332975
104	0x408421b7	4.1291156
105	0xc007e3af	-2.1232717
106	0x411b91d9	9.723107
107	0x400bb772	2.1830716
108	0xbfe69c70	-1.8016491
109	0xc09ce17e	-4.902526
110	0x3fb1a0cb	1.3877195
111	0xc011da5b	-2.2789524
112	0xc007d455	-2.1223347
113	0xc06d557d	-3.7083428
114	0x40890ebe	4.2830496
115	0xbd288e7c	-0.04115151
116	0xc004e846	-2.0766768
117	0x401b848f	2.4299657
118	0xbfe69c6f	-1.801649
119	0xc0936c89	-4.606999
120	0x3faee651	1.3664037
121	0xc0056733	-2.0844238
122	0xc0352119	-2.8301451
123	0xbf84c0b1	-1.0371305
124	0x4090302f	4.505882
125	0x40b317e9	5.5966687
126	0xc030f6d0	-2.7650642
127	0x401c371c	2.4408636
128	0xbfe69c6e	-1.8016489
129	0xc070da1c	-3.7633123
130	0x3fa6bf15	1.3027064
131	0xc000742e	-2.007091
132	0xc05272a5	-3.2882473
133	0x3d805267	0.06265717
134	0x409086fa	4.5164766
135	0x40852f10	4.161995
136	0xc04199e9	-3.025019
137	0x4015ea04	2.3424082
138	0xbfe8a543	-1.8175434
139	0xc041c1bb	-3.0274494
140	0x3f9780e3	1.1836208
141	0xbff4eab2	-1.9134123
142	0xc064387b	-3.5659473
143	0x3f5bd62a	0.85873663
144	0x4090007a	4.500058
145	0x4071b2bb	3.7765338
146	0xc04ee191	-3.2325175
147	0x4017e859	2.3735564
148	0xbff079fc	-1.8787227
149	0xc01d0f06	-2.454042
150	0x3f860620	1.0470619
151	0xbfeafa03	-1.8357548
152	0xc07645d8	-3.848013
153	0x3fa3b5f4	1.2789903
154	0x408e0d7d	4.4391465
155	0x407ab700	3.9174194
156	0xc0641e93	-3.564366
157	0xbf0c6a6f	-0.54849905
158	0xbffecc06	-1.9906013
159	0xc0032b0c	-2.0495024
160	0x3f67bdf2	0.9052421
161	0xbfe69c6d	-1.8016487
162	0xc086db19	-4.2142453
163	0x3fd011fd	1.625549
164	0x40898f24	4.298723
165	0x408bd339	4.369534
166	0xc087f1a2	-4.248246
167	0xbfa6bd7c	-1.3026576
168	0xbffa67e2	-1.9562953
169	0xbfeb4ee7	-1.8383454
170	0x3f4de059	0.8042045
171	0xbfe69c6f	-1.801649
172	0xc096cf4c	-4.712805
173	0x3fdd479e	1.7287481
174	0x4089076a	4.282155
175	0x40a17383	5.0453506
176	0xc0a05483	-5.0103164
177	0xbf88a3c0	-1.0674973
178	0xbff212a4	-1.8911939
179	0xbfe79e9e	-1.8095281
180	0x3f1a0bd3	0.6017429
181	0xbfe69c6d	-1.8016487
182	0xc0ad46d1	-5.4148946
183	0x40096f16	2.1474051
184	0x4086598b	4.1984305
185	0x40b9d55e	5.807296
186	0xc0c8c2e4	-6.2737904
187	0xbf0b6092	-0.5444423
188	0xbfebfa9d	-1.8435856
189	0xbfe69c6e	-1.8016489
190	0x3eca2c24	0.39486802
191	0xbfe69c6e	-1.8016489
192	0xc0b97bf9	-5.7963834
193	0x40040f00	2.0634155
194	0x4087fe39	4.249783
195	0x40cb98c5	6.3623986
196	0xc0ebfa99	-7.3743405
197	0x3e990543	0.29886827
198	0xbfe90a4e	-1.820627
199	0xbfe69c6e	-1.8016489
200	0x3dde1b38	0.10845035
201	0xbfe69c68	-1.8016481
202	0xc0b9cebb	-5.8064857
203	0x3eeac68f	0.45854613
204	0x40816087	4.043033
205	0x40d78837	6.735378
206	0xc10696d7	-8.411826
207	0x3f9f2cec	1.2435584
208	0xbfe69c68	-1.8016481
209	0xbfe69c68	-1.8016481
210	0xbba4a29a	-0.0050242664
211	0xbfe69c65	-1.8016478
212	0xc08983fb	-4.297361
213	0x3f418896	0.7559904
214	0x402fa8f5	2.7446873
215	0x401ba9ff	2.4322507
216	0xc0da7a04	-6.8273945
217	0x3f666d4c	0.90010524
218	0xbfe69c63	-1.8016475
219	0xbfe69c63	-1.8016475
220	0x3e00ba06	0.12570962
221	0xbfe69c5f	-1.8016471
222	0xc0190ec7	-2.391527
223	0x3f063081	0.5241776
224	0x404dc69c	3.2152472
225	0xbf9b1b30	-1.2117672
226	0xc0d3180c	-6.5966854
227	0xbe54f268	-0.20795596
228	0xbfe69c5f	-1.8016471
229	0xbfe69c5f	-1.8016471
230	0xbeafb35b	-0.34316525
231	0xbfe69c5b	-1.8016466
232	0xbfe69c5b	-1.8016466
233	0x3e844fae	0.2584204
234	0x40949aa1	4.6438756
235	0xbfe69c5b	-1.8016466
236	0xc0d42992	-6.6300745
237	0xbf1d4733	-0.61436766
238	0xbfe69c5b	-1.8016466
239	0xbfe69c5b	-1.8016466
240	0xbf1c4e29	-0.6105676
241	0xbfe69c4c	-1.8016448
242	0xbfe69c4c	-1.8016448
243	0x3fae47c3	1.361565
244	0x40ad1e9e	5.4099874
245	0xbfe69c4c	-1.8016448
246	0xc0d4a361	-6.6449437
247	0xbfc5affd	-1.5444332
248	0xbfe69c4c	-1.8016448
249	0xbfe69c4c	-1.8016448
250	0xbf3fe84f	-0.7496385
251	0xbfe69c35	-1.8016421
252	0xc04b27b2	-3.1742978
253	0x401e175c	2.4701757
254	0x40b393a6	5.6117735
255	0xbedba430	-0.42898703
