output/letter_weights.npy (npy, 116112 bytes, 1 tensors)

array f4 [784, 37]
27.109974 -3.7829928 -21.142721 -8.431618 -16.178799 -39.55844 -33.30844 16.631437
-10.626734 -4.447607 16.374964 11.690249 -31.429693 26.59516 0.7557694 6.615877
1.3375086 -1.9063209 -17.675419 7.5438757 -27.829023 -3.4999955 -14.805184 31.359035
14.56364 3.179536 -11.589168 -44.76099 -15.756078 21.322546 4.4775386 -2.6584356
11.379862 -17.599762 17.702095 -23.085102 -16.779799 12.843091 -22.157875 -19.041159
-6.765961 -12.096387 -51.90822 -13.29 18.686283 -7.075601 -7.6253223 19.430887
19.312756 -26.503742 11.006165 3.4679265 4.9876914 1.028839 6.4667344 -24.432426
10.864387 -2.8545632 1.8215587 -18.279968 23.453876 -11.03474 16.845608 9.063383
-6.3897247 -15.448335 7.8965397 4.974587 14.232118 -1.3422087 -20.829075 3.1454446
-30.517246 0.07759776 7.854761 -21.535318 -7.584442 -7.7350545 -9.993616 -49.32679
-4.1849384 21.310616 3.802218 -11.979928 20.284525 12.17872 -28.074781 3.1602254
-0.98017466 5.348803 2.2933917 5.7236958 -31.55982 13.62544 1.98683 -1.5373781
-21.759117 15.270811 -11.594792 14.919577 7.0411634 1.0440404 -9.386263 5.772546
5.651194 14.635401 -2.222439 -22.267902 3.5444243 -25.432318 -1.851737 10.495251
-16.145285 0.4997464 -8.30033 -7.691539 -43.399162 3.8443975 20.349674 10.562785
-10.177499 18.263536 4.8943524 -33.934513 -1.341079 -1.282799 2.9445405 1.3717095
7.274643 -34.663918 14.8151655 4.2874966 -2.5382125 -23.87057 9.227519 -12.466984
14.27795 9.652747 -0.06352115 -3.7745185 8.305974 5.2934055 8.275467 -3.027493
-22.516548 7.041711 -23.357168 -4.416666 11.282108 -17.77151 1.4531076 -7.513748
-5.9472203 -43.986954 12.022729 11.891259 17.530584 -1.4843377 11.991981 2.1199572
-38.665573 -0.264852 0.5262618 0.34862024 0.6239585 1.7787547 -29.73526 10.066055
7.744598 6.179083 -24.972437 11.9427185 -9.902993 13.838106 11.330658 -2.0266702
-6.452308 13.957879 1.3683455 5.223947 -7.673549 -23.140026 10.581945 -22.317966
-14.687538 13.587968 -40.04655 -11.967581 -6.701732 -2.5784807 -46.844433 13.634979
8.6758585 23.158117 4.436585 8.596752 3.8523557 -38.010315 2.2787256 5.789277
-0.8642188 1.0763735 -22.582651 -20.410099 8.076345 6.7409115 11.9797 -25.1895
10.195806 -5.343391 15.207354 10.321958 1.1970623 -7.555922 14.494273 -7.066393
5.3798013 -6.8251886 -23.556568 8.349624 -17.391657 -21.131216 15.244024 -46.263424
-24.27228 -6.043188 -1.3531791 -40.430447 4.537192 5.384862 6.1437225 4.3739247
6.049388 9.069778 -37.76094 5.5740194 3.9769056 1.299216 0.5422856 -41.78113
1.5422015 8.054771 12.600804 16.55952 -23.713255 9.563622 -0.14126088 17.697144
3.607605 3.0220442 -6.444809 15.9965 -16.366264 4.58007 -5.261602 -26.990257
00000000: 3ae1 d841 8e1c 72c0 4b24 a9c1 e8e7 06c1
00000010: 2e6e 81c1 d83b 1ec2 d83b 05c2 2f0d 8541
00000020: 1a07 2ac1 cc52 8ec0 edff 8241 430b 3b41
00000030: 0370 fbc1 e3c2 d441 1a7a 413f 44b5 d340
00000040: 7b33 ab3f 5302 f4bf 4267 8dc1 6e67 f140
00000050: d7a1 dec1 edff 5fc0 09e2 6cc1 4edf fa41
00000060: ab04 6941 857d 4b40 3b6d 39c1 410b 33c2
00000070: e518 7cc1 9394 aa41 ff47 8f40 cf23 2ac0
00000080: ea13 3641 50cc 8cc1 e49d 8d41 4aae b8c1
00000090: 073d 86c1 4d7d 4d41 5443 b1c1 4b54 98c1
000000a0: c182 d8c0 cd8a 41c1 04a2 4fc2 d7a3 54c1
000000b0: 827d 9541 536b e2c0 a402 f4c0 7572 9b41
000000c0: 8680 9a41 aa07 d4c1 4019 3041 82f2 5d40
000000d0: 2b9b 9f40 ffb0 833f 7def ce40 9c75 c3c1
000000e0: 87d4 2d41 2ab1 36c0 d628 e93f 603d 92c1
000000f0: 8aa1 bb41 4c8e 30c1 cec3 8641 9e03 1141
00000100: a078 ccc0 612c 77c1 74b0 fc40 d12f 9f40
00000110: c1b6 6341 7fcd abbf f2a1 a6c1 f74e 4940
00000120: 5223 f4c1 93eb 9e3d 345a fb40 5548 acc1
00000130: c0b3 f2c0 9185 f7c0 dae5 1fc1 a24e 45c2
00000140: 04eb 85c0 247c aa41 8a57 7340 c9ad 3fc1
00000150: b546 a241 0adc 4241 2799 e0c1 2241 4a40
00000160: baec 7abf 6529 ab40 eec6 1240 8428 b740
00000170: 837a fcc1 cd01 5a41 7250 fe3f cec8 c4bf
00000180: ac12 aec1 3e55 7441 4584 39c1 96b6 6e41
00000190: 3651 e140 1ea3 853f 222e 16c1 b2b8 b840
000001a0: 95d6 b440 9a2a 6a41 713c 0ec0 aa24 b2c1
000001b0: d9d7 6240 6375 cbc1 b805 edbf 8cec 2741
000001c0: 8b29 81c1 c3de ff3e 27ce 04c1 1621 f6c0
000001d0: be98 2dc2 9c0a 7640 22cc a241 2b01 2941
000001e0: 09d7 22c1 b91b 9241 899e 9c40 f1bc 07c2
000001f0: 7aa8 abbf c232 a4bf 5a73 3c40 2d94 af3f
00000200: e0c9 e840 daa7 0ac2 eb0a 6d41 2c33 8940
00000210: 1372 22c0 edf6 bec1 eba3 1341 c478 47c1
00000220: 7c72 6441 a771 1a41 6017 82bd b691 71c0
00000230: 45e5 0441 9463 a940 5068 0441 72c2 41c0
00000240: e421 b4c1 b255 e140 7bdb bac1 5455 8dc0
00000250: 8483 3441 0d2c 8ec1 6eff b93f a070 f0c0
00000260: a14f bec0 a4f2 2fc2 195d 4041 9942 3e41
00000270: a33e 8c41 c7fe bdbf 27df 3f41 61ad 0740
00000280: 8ca9 1ac2 ae9a 87be 18b9 063f 5a7e b23e
00000290: bfbb 1f3f 3cae e33f d0e1 edc1 900e 2141
000002a0: bfd3 f740 0cbb c540 8dc7 c7c1 6015 3f41
000002b0: a972 1ec1 e268 5d41 604a 3541 f7b4 01c0
000002c0: 4f79 cec0 7953 5f41 f225 af3f 932a a740
000002d0: b78d f5c0 c61e b9c1 a64f 2941 328b b2c1
000002e0: 2800 6bc1 5168 5941 ab2f 20c2 367b 3fc1
000002f0: 9774 d6c0 d405 25c0 b360 3bc2 e028 5a41
00000300: 51d0 0a41 d343 b941 81f8 8d40 4c8c 0941
00000310: ff8c 7640 900a 18c2 a4d6 1140 c241 b940
00000320: 713d 5dbf 9bc6 893f 45a9 b4c1 e247 a3c1
00000330: b638 0141 8cb5 d740 daac 3f41 1984 c9c1
00000340: 0522 2341 0ffd aac0 5251 7341 bd26 2541
00000350: 5639 993f 1dca f1c0 8be8 6741 e41f e2c0
00000360: 5527 ac40 f267 dac0 da73 bcc1 0f98 0541
00000370: 1d22 8bc1 bb0c a9c1 86e7 7341 bf0d 39c2
00000380: a12d c2c1 cc61 c1c0 f934 adbf c7b8 21c2
00000390: ad30 9140 ca50 ac40 6099 c440 31f7 8b40
000003a0: 9694 c140 d01d 1141 340b 17c2 5e5e b240
000003b0: 9f85 7e40 b64c a63f 3bd3 0a3f e11f 27c2
000003c0: dc66 c53f 58e0 0041 e59c 4941 e679 8441
000003d0: bfb4 bdc1 9904 1941 b1a6 10be c093 8d41
000003e0: 00e3 6640 2c69 4140 e03b cec0 aaf1 7f41
000003f0: 1cee 82c1 ef8f 9240 0b5f a8c0 0cec d7c1
