output/letter_weights.npy (npy, 116112 bytes, 1 tensors)

array f4 [784, 37]
000000 62 80 19 40 d2 cc 7a 40 7f 2e d7 c1 1d cb 84 c0
       2.3984609 3.9187512 -26.897703 -4.149794
000010 98 8e 74 3f bc 04 0f c2 b9 c7 a9 c0 b8 c9 d2 40
       0.9553008 -35.754623 -5.30563 6.587124
000020 49 92 5c c1 34 74 6a bf c4 74 13 c1 03 d1 5a 41
       -13.785714 -0.9158356 -9.216007 13.676028
000030 59 f6 8d c1 ef 89 62 41 de 58 2d c0 ab 31 f9 40
       -17.745287 14.158675 -2.708549 7.787313
000040 05 14 c9 c0 0b 57 b4 c0 9c 2f c2 c1 34 f2 26 bf
       -6.283694 -5.6356254 -24.273247 -0.6521332
000050 20 3e 5a c1 da c6 de c0 cc 05 7d c1 1d 0f 19 41
       -13.640167 -6.961774 -15.813915 9.56619
000060 b2 8b 6e c1 9b d9 1c 41 5b 9b ca 3f 64 41 29 c1
       -14.909105 9.803126 1.5828661 -10.5784645
000070 b1 39 91 40 42 88 d3 41 bf a6 b1 c1 3d 0e 14 be
       4.5382924 26.441532 -22.206419 -0.14458556
000080 0c 8e 09 c1 1d b7 47 c1 3d 80 6a 41 15 e4 d3 c1
       -8.597179 -12.482205 14.656308 -26.486368
000090 ab 54 07 c2 70 22 b9 c0 16 d5 7c c1 90 8d 02 c2
       -33.832684 -5.785454 -15.802023 -32.638245
0000a0 cf 6a a2 c1 6c 8d 55 41 57 11 30 c2 ab d7 83 c1
       -20.302153 13.347027 -44.016933 -16.480307
0000b0 f0 08 1d 41 8b 21 37 bf 22 97 05 c0 63 15 a7 3f
       9.814682 -0.7153556 -2.0873494 1.3053402
0000c0 ab 58 56 41 fd bc 9b c1 6d b8 82 41 b5 03 8f c1
       13.396647 -19.46728 16.340052 -17.87681
0000d0 f4 da fa 40 12 1a 31 41 d1 72 e0 c1 01 37 d8 c1
       7.8392277 11.068865 -28.056063 -27.026857
0000e0 9a 67 02 41 53 11 83 c1 d8 df 03 41 8b 85 66 c1
       8.150293 -16.38346 8.242149 -14.407603
0000f0 c6 56 91 40 86 96 1e 40 61 d9 2c 3e 9e 7d 24 41
       4.5418425 2.4779372 0.16879798 10.280668
000100 49 39 0f 41 da 53 69 bf 87 20 77 41 aa e0 b5 c1
       8.951486 -0.9114357 15.445441 -22.7347
000110 fb 3a 4f 41 09 e6 97 c0 23 c5 0d c2 06 2d 95 3f
       12.9519 -4.7468305 -35.442516 1.1654365
000120 80 b9 16 c2 fe 88 1d c2 b6 fd f6 c0 8e 44 27 c0
       -37.681152 -39.38378 -7.7184706 -2.6135592
000130 45 e8 b4 c1 71 09 69 c1 a7 2f a7 41 df 2d b8 c1
       -22.613413 -14.564805 20.898268 -23.022398
000140 e9 9a 03 c1 2f 81 95 40 47 17 7c 40 7c fb c1 bf
       -8.22532 4.6720195 3.9389207 -1.5154872
000150 ca 70 ae c0 4e 07 51 41 4a da d3 c1 8d e4 0b 41
       -5.451268 13.064283 -26.481586 8.743299
000160 08 b6 85 c0 f6 65 01 c1 1b 59 bd 40 d2 7e af 41
       -4.1784706 -8.087393 5.917127 21.936924
000170 97 6d d8 c1 8a cc 5d 40 f5 7a 91 c1 3a 33 11 41
       -27.05351 3.465609 -18.185038 9.0750065
000180 00 ce b1 c0 cb ba 1d c0 ae 9b 2b 41 7a 21 a1 3f
       -5.5563965 -2.464526 10.725508 1.2588341
000190 73 8b 24 c1 92 b3 06 41 63 73 1c c1 43 26 3e 41
       -10.284045 8.41884 -9.778171 11.884341
0001a0 2a e5 8b c1 ce 8d 67 41 ff 16 cb 3f 53 5d d3 c1
       -17.486897 14.47212 1.5866393 -26.420568
0001b0 ae fd 38 c0 25 4b ba c1 3e 72 97 c1 c3 d3 19 40
       -2.8904834 -23.286692 -18.930782 2.40355
0001c0 80 49 06 41 49 48 8b c1 fb 3b 6c c1 15 27 35 41
       8.392944 -17.410295 -14.764644 11.3220415
0001d0 59 e8 c9 c1 ea 43 02 c1 7f cd d9 3f d7 4e d5 40
       -25.238451 -8.141581 1.7015837 6.665874
0001e0 ed ee 67 c0 19 04 97 c0 c5 89 52 41 84 68 14 c2
       -3.6239579 -4.71925 13.158635 -37.102066
0001f0 dd 07 53 40 6e 3b cd c0 f6 1c e6 c0 e1 ca fe 40
       3.297355 -6.4135046 -7.1910353 7.9622655
000200 6b 1f 3d 41 bc b7 75 c1 3c 75 49 40 71 b3 2f c1
       11.82017 -15.357357 3.1477804 -10.981309
000210 4c 3a 8d 40 3c e4 7c c0 8e d2 6e 40 c6 ba c9 40
       4.4133663 -3.9514303 3.7316012 6.3040495
000220 cb 5a 93 40 a4 80 50 c1 52 93 82 c0 63 3c 64 3f
       4.604833 -13.031406 -4.0804834 0.8915464
000230 f4 80 59 41 17 a7 7b c0 60 4c f5 40 87 20 8a 3f
       13.593983 -3.9320734 7.665573 1.0791177
000240 fd c7 d4 c1 40 37 b7 3f b1 87 56 c1 a2 23 87 c1
       -26.59765 1.4313736 -13.408128 -16.892399
000250 2e 30 1f 40 d9 ba c2 40 19 f8 07 c1 22 8e 70 c1
       2.4873157 6.0853086 -8.498071 -15.0347
000260 28 04 e2 40 30 29 e1 c1 69 68 3a c1 3c ba cd bf
       7.0630074 -28.145111 -11.650491 -1.6072459
000270 41 86 d0 40 34 e9 01 c0 4a 7f 41 c0 2c 76 48 41
       6.5163884 -2.0298586 -3.023394 12.528851
000280 de 4a ac c1 5d 70 40 bf a8 45 c7 c0 20 6a a5 c0
       -21.536556 -0.7517145 -6.227253 -5.1692047
000290 22 d1 9c 40 93 ee 61 41 9b 74 6d c1 ae 59 8b c0
       4.900529 14.120746 -14.840968 -4.354697
0002a0 04 5a b1 40 1d 24 0e 40 f7 a9 0e c1 3e 2d 2c be
       5.542238 2.2209542 -8.916495 -0.16814134
0002b0 5d 0c 55 40 56 da fc 40 e2 3f 43 c1 b6 42 e0 c0
       3.3288796 7.9016523 -12.203096 -7.0081434
0002c0 4e 7b 2f bf a1 bc 80 41 10 73 4c 41 35 00 f2 40
       -0.68547523 16.092104 12.778091 7.5625253
0002d0 55 ac 98 3f f0 0f e6 c1 2c 36 c4 40 c8 c4 37 c1
       1.1927592 -28.757782 6.131613 -11.485542
0002e0 39 2c 51 c0 01 5a 95 40 6e df 89 40 ca e1 41 bf
       -3.2683241 4.667237 4.308524 -0.7573515
0002f0 73 3b 80 c1 9f 2f b5 3e 9b 07 ed c1 3f a1 25 c1
       -16.029028 0.35387895 -29.628714 -10.351867
000300 a7 c0 92 40 11 56 df 40 cb 16 d3 bf 92 e7 6d c0
       4.586017 6.979256 -1.6491331 -3.717259
000310 13 74 40 41 44 26 e1 c1 c7 ec 73 3e 71 c3 a8 c0
       12.028338 -28.143684 0.23820792 -5.2738576
000320 55 2f 90 bf fd 72 36 3f 8e e9 a6 40 f6 93 69 c1
       -1.1264445 0.7126921 5.21601 -14.598623
000330 db 39 0d c0 2d 4b 5e 41 97 5c 2b 3f 55 5d 43 c1
       -2.2066562 13.893353 0.66938156 -12.210286
000340 24 41 80 c0 ab 8c 17 40 41 92 fd 40 3e c5 99 c0
       -4.0079517 2.3679607 7.9241033 -4.8053274
000350 ec 4c 20 c1 1f 10 8c c0 78 d3 8b 41 5a 91 ff 3e
       -10.01878 -4.376968 17.478256 0.49915582
000360 1d 77 07 41 e0 1d 6e 3f 0d c8 f2 c1 6b 03 e6 40
       8.46658 0.93014336 -30.347681 7.187917
000370 42 76 b4 c1 f0 8c 5d c1 df 38 d7 40 68 aa fa c0
       -22.557743 -13.846909 6.7256923 -7.8333015
000380 12 d1 77 c1 a6 e8 7e c1 6e de 28 c1 d6 30 04 c2
       -15.488543 -15.931799 -10.554304 -33.04769
000390 9c 8f 76 c1 3a 36 26 41 a0 ec 7f 41 57 19 61 c0
       -15.410061 10.388239 15.99527 -3.5171716
0003a0 bf 44 aa c0 d4 cf 1f 41 3a b6 12 c2 e7 88 54 3f
       -5.320892 9.988239 -36.677956 0.83021396
0003b0 ed 9a bd c0 b8 99 e2 3f e8 b8 c4 bf e1 fb 6f c1
       -5.925162 1.7703161 -1.5368929 -14.998994
0003c0 3d b3 55 c1 cb d1 08 41 e9 e6 5f 41 69 37 9b 40
       -13.356259 8.551219 13.993875 4.850514
0003d0 78 3f 82 c1 52 ec f6 3f d9 e3 93 40 ce d9 e9 40
       -16.28099 1.9290869 4.6215634 7.3078375
0003e0 7e 4c 51 40 ee c9 11 c1 d6 b4 04 c1 da 6a 85 41
       3.2702937 -9.111799 -8.294149 16.677174
0003f0 e9 35 80 c1 03 43 b6 40 f4 eb e3 be 84 20 f1 c1
       -16.026323 5.69568 -0.44515955 -30.140877
