output/letter_weights.npy (npy, 116112 bytes, 1 tensors)

array f4 [784, 37]
0	0x406b5452	3.6770215
1	0xc0635732	-3.552197
2	0xc19dfbb3	-19.7479
3	0xc0b10bdb	-5.532697
4	0xc023afd8	-2.5576077
5	0xc1af6c14	-21.927773
6	0xc0111c3f	-2.267349
7	0x41459cc5	12.350774
8	0xc1167e12	-9.405779
9	0x40c078af	6.014732
10	0xc02c4f6b	-2.6923473
11	0x40e0f276	7.0295973
12	0xc1a4916f	-20.571012
13	0x3ec10bbd	0.37704268
14	0xc18fdc87	-17.98268
15	0x3ecc7ce3	0.3993903
16	0xc10b79bc	-8.71722
17	0x3fbc2a19	1.4700347
18	0xc17edce5	-15.928929
19	0xc1232301	-10.196046
20	0xc176cb69	-15.424661
21	0x4101fc22	8.124056
22	0xbfe69c68	-1.8016481
23	0x412c106a	10.754007
24	0xc0862d0b	-4.1929984
25	0x413cfcc7	11.811713
26	0xbfa5b7b7	-1.294669
27	0xc0eb0a48	-7.345005
28	0x4124b1ad	10.293378
29	0x41a4d39b	20.603323
30	0xc161b1b8	-14.105888
31	0x40d25236	6.5725355
32	0xc0cc87d3	-6.39158
33	0xc1be012c	-23.750572
34	0x3f9d9110	1.2309895
35	0xc1822a84	-16.27076
36	0xc1e05fd0	-28.046783
37	0xbebe189f	-0.3712816
38	0xc10f073d	-8.939267
39	0xc1c74cc4	-24.912483
40	0xc0649a7d	-3.5719292
41	0x404aa98b	3.166598
42	0xc1d13300	-26.149902
43	0xc1225942	-10.146791
44	0x41547307	13.278083
45	0xc1114649	-9.079659
46	0xbefbf6e9	-0.49211815
47	0x412be3f6	10.743155
48	0x409dcec7	4.9314914
49	0xc1d7f76f	-26.995817
50	0x418fdb9a	17.982227
51	0xc1be46ec	-23.78463
52	0x4105debc	8.3668785
53	0xc1311e54	-11.069904
54	0xc1b6b060	-22.83612
55	0xc1790994	-15.564838
56	0xbfee4911	-1.8616048
57	0xc1973313	-18.899939
58	0x411bbbdc	9.733364
59	0xc0053cdb	-2.0818393
60	0x3ef8b9a3	0.4857913
61	0xbfe5df76	-1.795882
62	0x40439a79	3.0563033
63	0xbdfcfb18	-0.1235258
64	0x4141ce17	12.112815
65	0xc09a34d4	-4.8189487
66	0x415e525b	13.895106
67	0xc1de1ee1	-27.765078
68	0x41576618	13.462425
69	0xc0442da1	-3.065285
70	0xc1cf65c4	-25.92469
71	0xbfa2db7f	-1.2723235
72	0xc1c48813	-24.566442
73	0xc1c533db	-24.65032
74	0xbfa0db62	-1.256695
75	0xc0877be9	-4.2338758
76	0xc159bf7f	-13.609252
77	0xc062e012	-3.5449262
78	0x40b3509a	5.603589
79	0xc1bdf7ea	-23.746052
80	0xc098c2e7	-4.773792
81	0x41035d74	8.210316
82	0x403c8616	2.945684
83	0xbf96c6ce	-1.177942
84	0xbfa4041a	-1.2813752
85	0x414f8e6a	12.972269
86	0xc1d33218	-26.39946
87	0x412de8a7	10.8693
88	0xc1179cc3	-9.475772
89	0xc125ccac	-10.362469
90	0xc030c1ab	-2.7618206
91	0x41b2ce2b	22.350668
92	0xc130d683	-11.052371
93	0xc09d9864	-4.9248524
94	0xc18fceac	-17.975914
95	0x411f7cdd	9.967984
96	0xc0dcf567	-6.9049563
97	0x40435bd6	3.0524802
98	0x411f3dce	9.952589
99	0x400082e1	2.0079882
100	0xc142720d	-12.152844
101	0x406f6904	3.7407846
102	0xc08a9153	-4.33024
103	0x411d1005	9.816411
104	0xc1343bc9	-11.264596
105	0x416301ea	14.187967
106	0x3f87dc45	1.0614096
107	0xc1b71d55	-22.889322
108	0xc004d1e1	-2.07531
109	0xc184ce54	-16.600746
110	0xc1ab6a6e	-21.426968
111	0x3f2bb1f4	0.6706841
112	0x409c4536	4.8834486
113	0xc11a74dd	-9.653531
114	0xc0856890	-4.169014
115	0x411833bc	9.51263
116	0xc19e61e0	-19.79779
117	0xc10f7865	-8.966893
118	0x3f04f87c	0.5194166
119	0xbe23b80d	-0.15988179
120	0xbfc1734d	-1.5113312
121	0xc00f9713	-2.2435958
122	0x4149c15a	12.609705
123	0xc201ba3f	-32.43188
124	0x409b9821	4.8623204
125	0xc10f73be	-8.965757
126	0xc0ac23b2	-5.3793573
127	0x40c924e7	6.2857547
128	0x4153139f	13.19229
129	0xc0d3bdbc	-6.616911
130	0xc118e1e2	-9.555147
131	0x40471bae	3.1110644
132	0x41095edb	8.585658
133	0xc0e4464e	-7.133582
134	0xc00b713e	-2.1787868
135	0x3f95acda	1.1693375
136	0xbe923f40	-0.2856388
137	0xc1051146	-8.316717
138	0xc057399c	-3.3628912
139	0xc0042641	-2.0648348
140	0x40e11189	7.0333905
141	0x40710440	3.7658844
142	0x40c63767	6.194263
143	0xbfc163c6	-1.5108573
144	0xc19d2175	-19.641336
145	0x40b43de6	5.632556
146	0xc1739f66	-15.226416
147	0xc177a124	-15.476841
148	0x3f3f7e9d	0.7480257
149	0x3ff84372	1.9395583
150	0xc11f785a	-9.966883
151	0xc184e72c	-16.612877
152	0x40e8fe48	7.28104
153	0xc19644c2	-18.783573
154	0xc18f480d	-17.910181
155	0x3ec13007	0.37731954
156	0x405f36b1	3.487713
157	0x3ffe3640	1.9860306
158	0xc0864aca	-4.1966295
159	0x41295274	10.58263
160	0xc1bc1353	-23.509436
161	0xbfc6eb90	-1.5540638
162	0xc1038d2e	-8.221968
163	0xc01224b6	-2.2834907
164	0x41031a84	8.193974
165	0xbea58830	-0.32330465
166	0xc0c9bbd9	-6.3041806
167	0xc1449d43	-12.288394
168	0x4148280e	12.509779
169	0x40e8bd3b	7.2730994
170	0xc14762c7	-12.461616
171	0xc09363e0	-4.605942
172	0x3f028d5d	0.50996953
173	0x3fb30e5a	1.3988755
174	0xc09119df	-4.534408
175	0xbf2bf5cd	-0.6717194
176	0xc05f2af6	-3.4869971
177	0x4101fede	8.124723
178	0x41634069	14.203225
179	0x40b246e0	5.5711517
180	0xc00d1b6b	-2.2047985
181	0xc1a98d48	-21.193985
182	0x4093511a	4.60365
183	0xc16032d2	-14.012407
184	0x3e60707f	0.21917914
185	0x40edb337	7.428127
186	0x3f97a8ea	1.1848423
187	0xc0090a70	-2.141262
188	0xc1a2dfb9	-20.35924
189	0x407373ac	3.803935
190	0xc163615d	-14.21127
191	0xc19468d8	-18.551193
192	0x40ca776d	6.3270783
193	0xbf045ea3	-0.51706904
194	0x3f070703	0.52745074
195	0xc092a8ce	-4.583106
196	0x413e25a1	11.884187
197	0xc1c12634	-24.143654
198	0xc046a4f3	-3.1038177
199	0xc12aa726	-10.665808
200	0xc01460c6	-2.3184066
201	0x40db65a4	6.8561573
202	0xc0792602	-3.8929448
203	0xc0cce7e3	-6.4033065
204	0xc0d60133	-6.6876464
205	0x4134ae85	11.292607
206	0x40b22280	5.5667114
207	0xc15a144e	-13.629957
208	0xc04e627c	-3.224761
209	0x3f84efc1	1.0385667
210	0x3f7b59a2	0.98183644
211	0xc01fea2e	-2.4986682
212	0xc11a3ee5	-9.640355
213	0xbf358cb4	-0.7091782
214	0x411ca907	9.791266
215	0x414019f3	12.006335
216	0x408a328f	4.3186717
217	0xbfbb1cf3	-1.461821
218	0xc1b24f40	-22.288696
219	0x40d87743	6.7645583
220	0xc1ae7cbb	-21.810904
221	0xc125e772	-10.369005
222	0x413bc8c6	11.736517
223	0xc17f51ac	-15.957439
224	0xc15df6c3	-13.872745
225	0xc191456a	-18.158894
226	0xc007816f	-2.117275
227	0xc17dbd4f	-15.858718
228	0xc17a2943	-15.635074
229	0x409add24	4.8394947
230	0x4109b390	8.6063385
231	0xc008b2b7	-2.135908
232	0xc0a0f85d	-5.030318
233	0x41081ac2	8.506533
234	0xc1b86466	-23.049023
235	0xbf0da73c	-0.55333304
236	0xc139e28d	-11.61781
237	0xbf49383c	-0.7860143
238	0x40408ebc	3.0087118
239	0xbff5d91f	-1.9206885
240	0xc0aef254	-5.467081
241	0x3fd5cd56	1.6703289
242	0x41140fe8	9.253883
243	0x40bf91d4	5.9865513
244	0xc167dacf	-14.49092
245	0x3d4799fa	0.048730828
246	0x406058b3	3.5054138
247	0xbf5c456c	-0.8604343
248	0x3f8c7584	1.0973363
249	0xc0d48164	-6.6407948
250	0xbf9649e7	-1.1741303
251	0x412e2b3c	10.885555
252	0x3fa5f662	1.2965815
253	0x40aee4d3	5.4654326
254	0xbfcd83f7	-1.6055897
255	0xc1b5550f	-22.666533
