output/letter_weights.npy (npy, 116112 bytes, 1 tensors)

array f4 [784, 37]
0	0x40fde334	7.9339848
1	0x410aef8d	8.683484
2	0xc1c9f7de	-25.246029
3	0xc14eac04	-12.916996
4	0xc011a576	-2.275724
5	0xc1819bab	-16.20101
6	0xc1ad2ba9	-21.646318
7	0x40b589cc	5.673071
8	0xc18557d4	-16.667885
9	0xc162cb2a	-14.174601
10	0x40c369c3	6.1066604
11	0x40ce40b9	6.4454007
12	0xc1013251	-8.074784
13	0x401d6ad4	2.4596453
14	0xc185e96a	-16.738972
15	0x4166d215	14.42629
16	0x40972e69	4.7244153
17	0x406623b0	3.5959282
18	0xc1177801	-9.466798
19	0x4062a935	3.5415776
20	0xc19d8618	-19.690475
21	0xbe8cf1a0	-0.27528095
22	0xc1ab397c	-21.403069
23	0x418264fc	16.299309
24	0x3fd0f948	1.6326075
25	0x41a37e8e	20.436794
26	0xc114a5ee	-9.29051
27	0xc2095a1d	-34.338
28	0xc1065da8	-8.397865
29	0x41849521	16.572817
30	0x418c27ea	17.51949
31	0xbe50ea99	-0.20401992
32	0x4083beed	4.1170564
33	0xc18f5dcc	-17.9208
34	0x4199c3ba	19.22057
35	0xc159f46e	-13.622175
36	0xc11087bf	-9.033141
37	0x40398b0b	2.8991115
38	0xc00db405	-2.2141125
39	0xc167401f	-14.453155
40	0xc142158b	-12.1302595
41	0xc0a0b2c5	-5.0218225
42	0xc1caec0b	-25.365255
43	0xc175dea9	-15.36686
44	0x40aeb643	5.4597487
45	0xc1932041	-18.390749
46	0xc12f9a39	-10.975152
47	0x40a1e633	5.0593505
48	0x40f42027	7.628925
49	0xc1336394	-11.211811
50	0xbf2e0711	-0.6797953
51	0xc10414dd	-8.255094
52	0x4138b7eb	11.544902
53	0x40dca69f	6.8953395
54	0x40dae2b4	6.8401737
55	0xc1239daa	-10.225992
56	0x40fd9a66	7.9250975
57	0xc002134c	-2.0324278
58	0x4085b6ac	4.178549
59	0xc1c6afdd	-24.83587
60	0x413003c9	11.000924
61	0xc0ff725b	-7.9827094
62	0x4193dc9c	18.48272
63	0x4087cf0c	4.2440243
64	0xc0d3c194	-6.61738
65	0xc029f388	-2.655489
66	0x40bd70fb	5.9200416
67	0xbf56183e	-0.8363074
68	0x41603514	14.012959
69	0xbf4201a0	-0.7578373
70	0xc10b0a37	-8.689994
71	0x3f8e3942	1.1111224
72	0xc14cddd7	-12.80416
73	0xc104cdb5	-8.300221
74	0xbe8275c4	-0.25480473
75	0xc09df3ce	-4.9360113
76	0xbfe286ca	-1.7697384
77	0xc1732260	-15.195892
78	0xc07e05de	-3.969108
79	0xc1caeedc	-25.36663
80	0xc11de6ea	-9.8688755
81	0x40e5b63d	7.178496
82	0xc1153bc6	-9.327093
83	0xc104497c	-8.2679405
84	0x40bc3ede	5.882674
85	0x40c7edba	6.2477694
86	0xc1096faf	-8.5897665
87	0xc0ce06b5	-6.4383187
88	0xc09b7f9b	-4.859327
89	0x40d216ff	6.565307
90	0x410f6fa7	8.964759
91	0x40a138c0	5.0381775
92	0xc1231cc4	-10.194523
93	0x4135e84f	11.369216
94	0x40e84080	7.2578735
95	0xc043be54	-3.0584917
96	0xc1bbbff5	-23.468729
97	0x40eba11f	7.363418
98	0xc10f9505	-8.973882
99	0x414dff15	12.874776
100	0x408d2ba6	4.411578
101	0xc020204a	-2.5019708
102	0x3fda8ace	1.707361
103	0x4055483e	3.3325343
104	0xbffca157	-1.9736737
105	0x416adeff	14.679442
106	0xbfb39c18	-1.4032011
107	0xc0cfe9d8	-6.4972954
108	0x3efbeee5	0.492057
109	0xc14dfe57	-12.874595
110	0xc0f30965	-7.594897
111	0xbd2f80fa	-0.04284761
112	0xc05dd1d3	-3.4659317
113	0x4065eb88	3.5925007
114	0xc189d8dc	-17.230888
115	0xc02cf96c	-2.7027235
116	0xc1c9f651	-25.245272
117	0xc0309431	-2.759045
118	0x40f8b3a3	7.7719283
119	0x3f2cd75d	0.6751612
120	0xc0a63b8f	-5.1947703
121	0x40736b0d	3.8034089
122	0x408a1fc9	4.31638
123	0xc1332b10	-11.198013
124	0xc0e83d86	-7.25751
125	0xc00f7558	-2.241537
126	0x402d3dc3	2.7068946
127	0x40ff4980	7.977722
128	0xbfe0c8c2	-1.7561266
129	0xc1300518	-11.001244
130	0x416434d3	14.262897
131	0x41084e6e	8.519148
132	0xc0d974dd	-6.7955155
133	0xc1a871d0	-21.055573
134	0x40b5e442	5.6841135
135	0xc10954d5	-8.583211
136	0x41086ee3	8.527072
137	0x40fcb6c6	7.897311
138	0xc03b285a	-2.9243379
139	0x404412df	3.0636518
140	0x40463493	3.0969589
141	0xc089d1c5	-4.3068566
142	0x412916c0	10.568054
143	0xc016db9f	-2.3571546
144	0xc0f53b04	-7.663454
145	0x3fe52158	1.7900801
146	0xc10a514a	-8.644846
147	0xc117e19b	-9.492579
148	0xbe575b7c	-0.21030992
149	0xc0e8d160	-7.2755585
150	0x3fa13391	1.2593862
151	0xc18f9c08	-17.951187
152	0xc0251172	-2.5791898
153	0xc1e591c6	-28.696178
154	0x408e8668	4.453907
155	0x40bec835	5.9619393
156	0x4136d9cc	11.428173
157	0xbef62281	-0.480732
158	0x405a7a2d	3.413707
159	0x407c1945	3.9390423
160	0xc169a0a3	-14.601718
161	0xc0ba9c3c	-5.8315716
162	0x3ed66a61	0.41878036
163	0x406532d5	3.5812275
164	0x40cd53e1	6.416489
165	0xc0f8be77	-7.77325
166	0xc1380dde	-11.503386
167	0x41506a6a	13.02598
168	0x4125b0bf	10.355651
169	0xc08d15d7	-4.408916
170	0xc1984e27	-19.03816
171	0x40eec093	7.4610076
172	0xc0e608e1	-7.188584
173	0x40a94643	5.289827
174	0x4107c3a5	8.485265
175	0xc0b577e3	-5.6708846
176	0x3fbdfed1	1.4843389
177	0x406bbc66	3.683374
178	0xc0f0bdd6	-7.5231733
179	0x41151cb6	9.3195095
180	0xc0969399	-4.7055173
181	0xc10db03b	-8.855525
182	0x4088f885	4.280337
183	0xc10805cb	-8.501414
184	0xc14f706c	-12.964947
185	0x3e91c0b7	0.28467342
186	0xc1b0aca3	-22.084295
187	0xc149d729	-12.615029
188	0xc1929735	-18.323832
189	0xbfb850ed	-1.4399697
190	0xc1fcff2d	-31.624598
191	0x40e8a0c3	7.269624
192	0x409833c8	4.756321
193	0x4194a183	18.578863
194	0x400114bf	2.0168912
195	0x40c14a37	6.0403094
196	0x40e11fef	7.035148
197	0xc18d5e61	-17.671083
198	0xc028c0c7	-2.6367662
199	0x40438a94	3.0553331
200	0x405ec95e	3.4810405
201	0x40b24c1e	5.5717916
202	0xc1d1c74a	-26.22231
203	0xc11a15e6	-9.630346
204	0x4141e10a	12.117441
205	0x4123b485	10.231572
206	0x3e4c687b	0.19961731
207	0xc199d7b0	-19.230316
208	0x40d94946	6.7901945
209	0xc096640c	-4.6997128
210	0x40cebdc4	6.4606647
211	0x40ed1253	7.408487
212	0xc063e2e0	-3.5607224
213	0x3f700b4d	0.93767244
214	0x4088a354	4.2699375
215	0xc1371d44	-11.444645
216	0x4104365e	8.263273
217	0xc0835ffd	-4.1054673
218	0xc10c6332	-8.774218
219	0x40371acf	2.8610113
220	0xc105b6e7	-8.357154
221	0xc17a5720	-15.646271
222	0x3f166686	0.5875019
223	0xc1cbdb33	-25.48203
224	0xc1dabb00	-27.341309
225	0xc1915d81	-18.170656
226	0xbf679fbe	-0.9047812
227	0xc1eaf5ba	-29.369984
228	0x40129c60	2.2907944
229	0x40456ab2	3.0846372
230	0x40fe65f7	7.949947
231	0x3f49526f	0.7864141
232	0x40da62b0	6.824547
233	0x4127590f	10.459243
234	0xc1ada634	-21.706154
235	0x3f8f9f0d	1.1220413
236	0x4013ae07	2.3074968
237	0x406e7e02	3.726441
238	0x4067eeba	3.6239457
239	0xc1f17646	-30.18275
240	0xbf881a27	-1.0632981
241	0x413d73e0	11.84079
242	0x412a21ea	10.63328
243	0x408eafd8	4.4589653
244	0xc196e7ef	-18.863249
245	0x40d8c7bd	6.774382
246	0xbf1e504c	-0.61841273
247	0x412b4ab5	10.705739
248	0x403f3f12	2.9882245
249	0xc0821b6c	-4.0658474
250	0x3fdde67b	1.7335962
251	0x40b84cd8	5.7593803
252	0xc1501627	-13.005408
253	0x40eb6955	7.356608
254	0xc03505e6	-2.828485
255	0xc132975a	-11.161951
