output/weight.npy (npy, 31440 bytes, 1 tensors)

array f4 [784, 10]
0	0xbdee6321	-0.11640001
1	0x3f975f72	1.1826003
2	0xbc6bee08	-0.014400013
3	0xbf17e910	-0.5934
4	0xbe9013aa	-0.28140002
5	0xbdee6321	-0.11640001
6	0xbeaa3056	-0.33240002
7	0xbd85f070	-0.065400004
8	0x3e8c154d	0.2736
9	0x3d8240b0	0.063599944
10	0xbe683e44	-0.22680002
11	0x3fecb296	1.8492
12	0xbdb5dcc6	-0.0888
13	0xbf475f70	-0.7788
14	0xbecd35a9	-0.40080002
15	0xbe55cfac	-0.20880002
16	0xbf3a511b	-0.7278001
17	0xbe185f07	-0.1488
18	0x3f70b0f2	0.9402
19	0xbe55cfb2	-0.2088001
20	0xbf456041	-0.77099997
21	0x40146a7e	2.3189998
22	0xbf6b020c	-0.918
23	0xbfb10624	-1.3829999
24	0xbff9fbe9	-1.9530002
25	0xbf81cac0	-1.0139999
26	0xc06c8b44	-3.696
27	0xbf18d501	-0.5970002
28	0x406d1eb8	3.705
29	0x4089db23	4.308
30	0xbf6a9fbe	-0.9165
31	0x40b03540	5.5065002
32	0xbf52d0e3	-0.82349986
33	0xbfd79db1	-1.6844999
34	0xc02e0c48	-2.7194996
35	0xbfc2e147	-1.5224999
36	0xc0899db3	-4.3005004
37	0xbf1f5c2a	-0.62250006
38	0x4019e354	2.4045
39	0x4095b646	4.6785
40	0xbf4be76e	-0.7965001
41	0x40c974bc	6.2955
42	0xbf35a1cc	-0.7095001
43	0xc00c4189	-2.1915
44	0xc0469fbf	-3.1035001
45	0xbfd8c49c	-1.6935
46	0xc0849fbe	-4.1445
47	0xbe4624db	-0.19349997
48	0x40278520	2.6175003
49	0x407ad914	3.9194994
50	0xbedab9fb	-0.42720017
51	0x40c60277	6.187801
52	0x3e71758a	0.23579994
53	0xc01eab37	-2.4792001
54	0xbf837b49	-1.0271999
55	0xbfec504a	-1.8462002
56	0xc0670d84	-3.6102
57	0x3ee75253	0.45179996
58	0x4003404f	2.0508
59	0x3eed771f	0.46379945
60	0xbd422691	-0.04740006
61	0x4092fec6	4.5936003
62	0x40283afc	2.6286001
63	0xc03e6cf4	-2.9754
64	0x3f254608	0.64559984
65	0xc0018fc4	-2.0243998
66	0xbecbfb1e	-0.39840025
67	0x3fe55325	1.7915999
68	0x3f8e2825	1.1106001
69	0xc0aa617c	-5.3244
70	0xbe68db87	-0.22739993
71	0x40484b5b	3.1295993
72	0x401b5dcb	2.4275997
73	0xc078cb29	-3.8874
74	0x401161e5	2.2716
75	0xc016ae7d	-2.3544
76	0x40adc77a	5.4306
77	0x402f86c2	2.7426
78	0xbdaacda0	-0.08340001
79	0xc11730be	-9.4494
80	0x3f641891	0.89099985
81	0x400f9db1	2.2439997
82	0x3fb1cac0	1.3889999
83	0xc03947ae	-2.895
84	0x407f5c29	3.99
85	0xbfd645a3	-1.6740001
86	0x40b67efa	5.703
87	0x406de353	3.7169998
88	0xbf526e99	-0.8220001
89	0xc148b022	-12.543001
90	0x3fde5606	1.7370002
91	0xbff24dd5	-1.8930002
92	0xbd50e538	-0.05099985
93	0xbf91eb86	-1.1400001
94	0x40bb1a9f	5.8469996
95	0xbe3851ec	-0.18
96	0x40715810	3.771
97	0x408a6e97	4.3259997
98	0xbf6bc6aa	-0.9210001
99	0xc137ef9e	-11.496
100	0x3fb38ef1	1.4027997
101	0xc088d6a1	-4.2762
102	0xbfcd35a9	-1.6032001
103	0xbe3c9ef3	-0.1842001
104	0x410648e9	8.3928
105	0x3fa61e4f	1.2978
106	0x400123a1	2.0177996
107	0x40950cb2	4.6577997
108	0xbfad566e	-1.3542001
109	0xc1259e84	-10.3512
110	0x3ee9517a	0.45569974
111	0xc08b1d15	-4.3473
112	0xbff7b7e9	-1.9353
113	0x3f0d3c3a	0.55170023
114	0x41248a09	10.2837
115	0x40532e48	3.2996998
116	0xbf8484b8	-1.0353003
117	0x409436e3	4.6317
118	0xbfd08ce7	-1.6293
119	0xc12467a1	-10.2753
120	0x3ed26e88	0.41099954
121	0xc09872af	-4.7639995
122	0xbfcc49ba	-1.596
123	0x3f8e76c6	1.1129997
124	0x4130c8b4	11.049
125	0x409578d4	4.6709995
126	0xc01e0419	-2.469
127	0x409547af	4.6650004
128	0xc00ad0e6	-2.1690001
129	0xc12e9376	-10.911001
130	0x3f4f34d4	0.80939984
131	0xc09a9446	-4.8306
132	0xbfbeecc0	-1.4916
133	0x40337b49	2.8043997
134	0x4132ef37	11.183402
135	0x408e40b8	4.4454
136	0xc03dbc02	-2.9646
137	0x40742f82	3.8153996
138	0xc01a05bc	-2.4066
139	0xc135d566	-11.364599
140	0x3e97e918	0.29670024
141	0xc0a660ac	-5.199301
142	0xbfb734d8	-1.4313002
143	0x40b3b3d3	5.615701
144	0x41289e83	10.538699
145	0x405f7804	3.4917002
146	0xc064b0f2	-3.5733
147	0x404cd846	3.2007003
148	0xbffd7a79	-1.9803001
149	0xc12f594c	-10.959301
150	0xbec2269a	-0.37920076
151	0xc0a605bc	-5.1882
152	0xbf9089a0	-1.1292
153	0x40da2b6b	6.8178
154	0x410b5f6e	8.710798
155	0x40785f09	3.8808005
156	0xc05ff2e3	-3.4991996
157	0x4029a6b4	2.6507998
158	0xbfa16f03	-1.2612003
159	0xc129a6b4	-10.603199
160	0xbed2bd4c	-0.41160047
161	0xc0946f6a	-4.6386003
162	0xbef2fec8	-0.47460008
163	0x40bfc9ed	5.993399
164	0x40e31de7	7.0974
165	0x406037b6	3.5034003
166	0xc01bf141	-2.4366
167	0x3fd3e426	1.6554
168	0xbf8367a1	-1.0266
169	0xc1142f84	-9.2616005
170	0xbb09a770	-0.0021004342
171	0xc089a29d	-4.3011003
172	0x3e114e38	0.14189994
173	0x4097844c	4.7348995
174	0x40a95f6f	5.2928996
175	0x403dc0ec	2.9649
176	0xbfa875f7	-1.3161
177	0x3ff6a4a8	1.9268999
178	0xbf5e7d57	-0.86910003
179	0xc1092b6b	-8.5731
180	0x3bf5c2cc	0.0075000282
181	0xc051916a	-3.2745004
182	0x3f124dd2	0.57149994
183	0x407b6c8b	3.9285
184	0x407d8937	3.9615
185	0x3f7d0e54	0.9884999
186	0xbf508314	-0.8145001
187	0x3fffef9e	1.9995
188	0xbf23f7d0	-0.64050007
189	0xc0d747ae	-6.7275
190	0xbe7be76a	-0.24599996
191	0xc0233332	-2.5499997
192	0x3f7d70a4	0.99
193	0x406b3335	3.6750004
194	0x400e45a2	2.223
195	0xbee353f9	-0.44400004
196	0xbf05a1ca	-0.52199996
197	0x40078d50	2.118
198	0xbf0b020d	-0.54300004
199	0xc0966e97	-4.7009997
200	0xbde3f150	-0.11130011
201	0xc01252bf	-2.2863004
202	0x3fade9e2	1.3587
203	0x40600b78	3.5007
204	0x3f75aee6	0.9597
205	0xbf40d845	-0.7533
206	0xbef5e9e1	-0.48029998
207	0x400c5533	2.1927001
208	0xbf1e48e9	-0.6183
209	0xc070c985	-3.7622998
210	0x3eb367a2	0.35040003
211	0xc00ee2ea	-2.2325997
212	0x3fbaee64	1.4604001
213	0x4056cf40	3.3563995
214	0x3f1bc019	0.6083999
215	0xbf4bac71	-0.7956
216	0xbf40ebec	-0.7535999
217	0x3ffb7175	1.9643999
218	0xbf38793e	-0.7206
219	0xc04f34d6	-3.2375998
220	0x3f4cac09	0.79950005
221	0xc02b2b04	-2.6745005
222	0x3fce6668	1.6125002
223	0x40689ba5	3.6344998
224	0x3fa11686	1.2584999
225	0xbf46872b	-0.7755
226	0xbfa4ed92	-1.2885001
227	0x3faf4bc7	1.3695
228	0xbf8f0a3e	-1.1175001
229	0xc034624c	-2.8184996
230	0x3f8f4538	1.1192999
231	0xc03444cf	-2.8166997
232	0x3fba4747	1.4553002
233	0x40326322	2.7873006
234	0x40047fcc	2.0703
235	0xbf8535a8	-1.0407
236	0xbf74ea4a	-0.95669997
237	0x3f6e2826	0.9303001
238	0xbf8af838	-1.0857
239	0xc01d9ce0	-2.4627
240	0x3fb5b574	1.4196
241	0xc048fc51	-3.1404002
242	0x3f495ea0	0.7866001
243	0x3fee2826	1.8606002
244	0x404b2ca7	3.1746004
245	0xbfe52bd4	-1.7904
246	0x3e1a36e7	0.15060006
247	0x3e797248	0.24360001
248	0xbf4ff971	-0.8123999
249	0xbff23a2a	-1.8924
250	0x3fe648e8	1.7990999
251	0xc06b41f3	-3.6759002
252	0xba6bf200	-0.00090005994
253	0x3fa813a7	1.3130997
254	0x4083e00d	4.1211
255	0xc00ccb2a	-2.1999002
